hw3/hw3q2/expert_torch.pt (torch, 7979 bytes, 3 tensors)

fc1.bias f4 [24]
0	0x3e8b0275	0.27150312
1	0xbe94e715	-0.29082552
2	0xbe93a193	-0.2883421
3	0xbe933611	-0.28752187
4	0xbe8fa080	-0.2805214
5	0x3f0c9355	0.5491231
6	0xbf11c1cb	-0.5693633
7	0x3ee334b3	0.44376144
8	0x3ed0c9a6	0.40778846
9	0xbecceff1	-0.4002681
10	0xbefe2ad4	-0.4964205
11	0xbe9f142e	-0.31070083
12	0x3daac725	0.08338765
13	0xbf00dae2	-0.5033399
14	0x3ee92f33	0.45543823
15	0xbee3e956	-0.4451396
16	0x3e968b54	0.29403174
17	0xbe958fdb	-0.29211316
18	0xbee93f7b	-0.45556244
19	0xbe97d7f4	-0.29656947
20	0xbf0bdb03	-0.5463106
21	0x3e8c11aa	0.27357227
22	0x3e96d8eb	0.2946237
23	0x3ea12625	0.31474414

fc2.bias f4 [48]
0	0xbf00c209	-0.50296074
1	0x3ebadae9	0.3649514
2	0xbecd3b74	-0.40084422
3	0x3e8a4cd0	0.27011728
4	0xbedd5f2d	-0.43236676
5	0xbebd4009	-0.36962917
6	0xbe39e1eb	-0.18152587
7	0x3e82eb0e	0.25569957
8	0xbe27d78a	-0.16390815
9	0xbec6c238	-0.38820052
10	0xbeafcff6	-0.3433835
11	0x3edc0196	0.4296996
12	0xbe971823	-0.29510602
13	0x3ec690cf	0.38782355
14	0xbebc8c1b	-0.36825642
15	0xbe99ac7b	-0.30014405
16	0x3ecfc271	0.40578035
17	0xbe8e0670	-0.27739286
18	0xbe939926	-0.2882778
19	0xbeef50f1	-0.4674144
20	0xbee8842a	-0.45413333
21	0xbef25c12	-0.4733587
22	0xbec4925c	-0.38392913
23	0xbeb2cc9b	-0.34921727
24	0x3effb8ef	0.4994578
25	0x3eaa6499	0.33279875
26	0xbe9a5aff	-0.3014755
27	0xbe33af9b	-0.17547457
28	0xbea61199	-0.324353
29	0xbe898411	-0.2685857
30	0x3e742e34	0.2384575
31	0x3ed7a5ea	0.4211877
32	0xbee100fb	-0.4394606
33	0xbecdaf88	-0.40172982
34	0xbed4b4fd	-0.41544333
35	0x3e9f0964	0.31061852
36	0xbea9a1dd	-0.33131304
37	0xbe83255a	-0.25614434
38	0xbeecef0c	-0.46276128
39	0xbf075500	-0.52864075
40	0x3f263210	0.6492014
41	0x3ebf89db	0.37409863
42	0x3e9a1080	0.30090714
43	0xbee1cf74	-0.44103587
44	0xbe7a2b0b	-0.24430482
45	0x3db38893	0.08766284
46	0x3eb20ec3	0.34776887
47	0x3cbe3c27	0.023222042

fc3.bias f4 [2]
0	0x3fac0c46	1.3441246
1	0x3faa332b	1.3296865
